Part6. Deep-Learning/models/model_cnn.pt (torch, 284067 bytes, 8 tensors)

layer.0.weight f4 [16, 1, 5, 5]
0	0xbe1718ad	-0.14755507
1	0xbdb56d31	-0.08858717
2	0xbdb38e3f	-0.08767366
3	0x3da55351	0.08072532
4	0xbd2141cb	-0.039369386
5	0x3cd63532	0.026148412
6	0x3e0445f8	0.12917316
7	0xbd9f598a	-0.0778075
8	0xbe64f3f6	-0.22358689
9	0xbf07b417	-0.5300917
10	0xbe3010d0	-0.17193913
11	0x3e733001	0.23748781
12	0x3e962aa7	0.29329416
13	0xbd8c33d8	-0.06845826
14	0xbe5471b6	-0.20746502
15	0xbe44b4fc	-0.19209665
16	0xbe42d84d	-0.19027825
17	0xbd2df0d6	-0.042466007
18	0x3e850887	0.25983068
19	0x3e8d22eb	0.27565703
20	0xbea6ce39	-0.3257921
21	0x3d3bcf19	0.0458518
22	0xbe48a70c	-0.19594973
23	0x3e3204d6	0.17384657
24	0x3e32224c	0.17395896
25	0x3e101031	0.14068677
26	0xbdb22fab	-0.08700498
27	0xbd53ce5e	-0.05171048
28	0xbd7631aa	-0.060105957
29	0x3e1b4e3d	0.15166564
30	0x3e1d631e	0.15369841
31	0xbd2d5660	-0.0423187
32	0x3e4d4140	0.20044422
33	0xbc9eb259	-0.019372152
34	0x3e18ace9	0.1490971
35	0x3cdd2368	0.026994422
36	0xbe0c6d44	-0.13713557
37	0xbd88cd90	-0.06679833
38	0x3df45d2e	0.11931835
39	0x3e132952	0.14371231
40	0xbed7348d	-0.4203228
41	0x3c391426	0.011296308
42	0xbd782533	-0.06058235
43	0xbde2aa0c	-0.1106759
44	0xbe8ec142	-0.2788182
45	0xbe154bfe	-0.1457977
46	0xbf124800	-0.57141113
47	0xbf1ecc14	-0.6203015
48	0xbea915a7	-0.33024332
49	0xbedd4150	-0.43213892
50	0x3e0a0c29	0.13481201
51	0xbd6df0b4	-0.05809088
52	0xbd8c2b72	-0.06844224
53	0xbd97bdc7	-0.07409244
54	0x3d92c44c	0.07166347
55	0xbe263bdf	-0.16233777
56	0xbda1c89b	-0.078995906
57	0xbe2ce784	-0.16885191
58	0x3de1a0e3	0.11017015
59	0x3ddc47cb	0.10755881
60	0xbedc6676	-0.43046921
61	0xbdea1e5b	-0.11431571
62	0xbc99e1fc	-0.018784516
63	0x3e1a431c	0.15064663
64	0x3d9c9980	0.07646465
65	0xbc5d58c2	-0.013509931
66	0x3e072467	0.1319748
67	0xbd867d7c	-0.06566903
68	0xbe872f9e	-0.26403517
69	0x3dde357e	0.108500466
70	0x3e8aba00	0.27095032
71	0x3e2090d3	0.15680246
72	0xbe0e00ac	-0.13867444
73	0x3dec678e	0.11543189
74	0xbe160e03	-0.14653783
75	0x3da811c3	0.08206513
76	0x3dbddd9b	0.092707835
77	0xbdfdfcce	-0.12401734
78	0xbe004941	-0.12527944
79	0xbc130fdb	-0.008975948
80	0x3dbf5eb6	0.093442366
81	0x3d50ac07	0.050945308
82	0xbe2802e2	-0.1640735
83	0xbe7b76b3	-0.24556999
84	0xbe781da6	-0.2423006
85	0x3e0329d1	0.1280892
86	0x3e8ba468	0.2727387
87	0x3e12c35d	0.14332338
88	0xbda7cd58	-0.08193463
89	0xbe814541	-0.2524815
90	0xbcb858fb	-0.022503367
91	0xbd1cda91	-0.03829438
92	0x3dae4020	0.085083246
93	0x3ddaf403	0.10691073
94	0xbcd33779	-0.025783287
95	0x3d0ec4ff	0.03485584
96	0x3e06657a	0.13124648
97	0x3c387c07	0.011260039
98	0x3be47f61	0.0069731926
99	0x3e0004db	0.12501852
100	0xbdb78193	-0.08960261
101	0x3dc8198a	0.09770496
102	0x3e3c3b05	0.18381889
103	0xbdd38ffb	-0.103301965
104	0xbdd6dd86	-0.10491471
105	0x3da6ad0b	0.08138474
106	0x3e52d7e7	0.20590173
107	0xbe0fbbe2	-0.14036515
108	0xbd5638b0	-0.052300155
109	0xbe3ad7f4	-0.18246442
110	0x3e2960d3	0.16540842
111	0x3dc74cfc	0.097314805
112	0x3d8d9025	0.06912259
113	0x3c90e24e	0.017686035
114	0xbc3edcdf	-0.011649339
115	0x3de9d697	0.11417883
116	0x3d1c8032	0.038208194
117	0xbcbaddcd	-0.022810841
118	0x3c7d852f	0.015473648
119	0xbe6e41b3	-0.2326725
120	0xbebc6715	-0.36797395
121	0xbe4894cd	-0.19588013
122	0xbd323886	-0.043510936
123	0x3cb057dd	0.021526271
124	0xbe428e63	-0.18999629
125	0xbe0604a9	-0.13087715
126	0x3e0a8734	0.13528138
127	0x3d2c3cfc	0.042050347
128	0xbc64444f	-0.013932302
129	0x3c338973	0.010958063
130	0xbdb9ed3e	-0.090784535
131	0xbe5be50c	-0.21474093
132	0x3e3d317f	0.18475913
133	0x3e201723	0.15633826
134	0xbc42dc2e	-0.011893315
135	0x3da45453	0.08023896
136	0xbe0c9507	-0.13728724
137	0xbdd439fd	-0.10362623
138	0x3e52fcdf	0.20604275
139	0xbcb0b9e0	-0.021573007
140	0xbe8ec80e	-0.27887005
141	0x3d7f2d40	0.062299013
142	0x3e55461c	0.20827526
143	0x3d15a39a	0.036532976
144	0xbdf66f0f	-0.120329015
145	0x3e22d283	0.15900616
146	0x3d61c3e1	0.055118445
147	0xbe2f6033	-0.17126541
148	0x3d1a7e6b	0.037718218
149	0xbe307378	-0.17231548
150	0xbd52f43a	-0.051502444
151	0xbd73e28d	-0.059542228
152	0xbd792acc	-0.06083183
153	0x3c31ea3c	0.0108590685
154	0x3d963be1	0.0733564
155	0xbe8d2c9d	-0.275731
156	0xbe35c34f	-0.17750286
157	0xbeaff3d6	-0.3436572
158	0xbe8b8b00	-0.27254486
159	0xbe1f24a2	-0.15541318
160	0xbe24a46e	-0.1607835
161	0x3d6db387	0.05803254
162	0xbe0f40da	-0.13989583
163	0xbe100686	-0.14064988
164	0x3ceb734c	0.028741501
165	0xbc883835	-0.016628364
166	0xbd8ad0b0	-0.06778085
167	0x3d43e0f4	0.047821954
168	0x3e7f33d4	0.24922115
169	0x3e23a69a	0.15981522
170	0xbd67b787	-0.05657151
171	0xba92dbbf	-0.0011204405
172	0x3e28f27f	0.16498755
173	0xbc27001d	-0.010192898
174	0x3e36bf0d	0.17846318
175	0xbd2f927e	-0.042864315
176	0x3e49d39f	0.19709633
177	0xbd15df7e	-0.036590092
178	0x3e15da6d	0.14634104
179	0xbd2242e8	-0.039614588
180	0x3c9662c8	0.01835765
181	0x3e62b2a4	0.22138458
182	0x3e2baeab	0.1676585
183	0x3e16add9	0.14714755
184	0xbd7ed160	-0.062211394
185	0xbd7f09cd	-0.062265206
186	0x3e324d23	0.17412238
187	0x3e10a301	0.14124681
188	0x3db63f0f	0.08898746
189	0xbdd6b41e	-0.104835734
190	0xbe5039ca	-0.20334545
191	0xbe94e133	-0.29078063
192	0xbe68602a	-0.22692934
193	0x3d8301a2	0.06396796
194	0x3dc205f4	0.09473792
195	0xbb577d85	-0.0032881212
196	0x3de37b10	0.11107457
197	0xbdcaa4b4	-0.09894696
198	0x3d06c321	0.032900933
199	0xbe8c76ae	-0.27434295
200	0x3b7f81c5	0.003898726
201	0x3e376190	0.17908311
202	0xbde13b5d	-0.10997651
203	0x3e84dab9	0.25948122
204	0x3db4be3a	0.08825345
205	0xbe3f3c8c	-0.1867544
206	0x3c93e3de	0.018052991
207	0x3e885716	0.2662894
208	0x3e31e33a	0.17371836
209	0xbebc5041	-0.3677998
210	0xbd847d70	-0.06469238
211	0xbe1c8ee2	-0.1528888
212	0xbd55d396	-0.052203737
213	0xbdd24b75	-0.102682985
214	0xbed39ac4	-0.41329014
215	0xbd7e4374	-0.062076047
216	0xbdc2755d	-0.094950415
217	0xbe94efec	-0.29089296
218	0xbe8f4744	-0.2798406
219	0x3c61e281	0.013786913
220	0xbe7229e7	-0.23648797
221	0x3c422444	0.011849467
222	0x3cc7d8eb	0.024395427
223	0x3dd55ec8	0.10418469
224	0xbdf59077	-0.11990445
225	0xbdafdc28	-0.08586913
226	0xbeba3258	-0.36366534
227	0x3c11213c	0.008858021
228	0xbd36a656	-0.044592224
229	0x3dcb5d9d	0.09929965
230	0xbe6183e4	-0.22022969
231	0xbe12c395	-0.14332421
232	0x3b246df0	0.0025089942
233	0x3e3951ea	0.18097654
234	0x3e3df754	0.1855138
235	0xbeac0089	-0.33594158
236	0xbe000c90	-0.12504792
237	0xbb99b283	-0.0046904697
238	0x3e264430	0.16236949
239	0xbdc577ab	-0.096419655
240	0xbe8b4b2c	-0.2720579
241	0xbdb4cf9f	-0.08828663
242	0xbdb3ce00	-0.08779526
243	0x3e0f80fc	0.14014047
244	0xbdfe234a	-0.124090746
245	0xbeb1576e	-0.34637016
246	0xbead40c6	-0.3383848
247	0xbe9b3500	-0.30313873
248	0xbddc99d7	-0.1077153
249	0x3ac0d6e2	0.0014712478
250	0xbb8dab29	-0.0043233824
251	0x3e0e6534	0.13905793
252	0x3df347a1	0.118788965
253	0xbe650082	-0.22363475
254	0xbd656b49	-0.05601052
255	0x3d0bf774	0.034171537

layer.0.bias f4 [16]
0	0xbcfc3fde	-0.030792173
1	0xbc1ba97b	-0.0095008565
2	0xbdfb3229	-0.12265427
3	0xbe54001b	-0.20703165
4	0xbc0a4a21	-0.008440525
5	0xbe928f9b	-0.28625187
6	0xbd462dc3	-0.048383486
7	0xbda70cb9	-0.081567235
8	0x3d0687c6	0.032844327
9	0xbc4ca3a3	-0.012490186
10	0xbe63221f	-0.22180985
11	0xbd64419d	-0.055726636
12	0xbc73e57f	-0.014886259
13	0xbd41587d	-0.04720353
14	0x3d90dc61	0.07073284
15	0xbc225d27	-0.009909905

layer.2.weight f4 [32, 16, 5, 5]
0	0x3d9ac328	0.07556754
1	0xbda224e5	-0.07917193
2	0xbd8b8b8d	-0.068137266
3	0x3db3c8f6	0.08778565
4	0x3d1b457b	0.03790806
5	0x3e6936db	0.22774832
6	0xbd1b71f3	-0.037950467
7	0xbe1c79b7	-0.15280806
8	0x3a188baa	0.00058191514
9	0x3deac7c6	0.11463885
10	0xbbe9e82e	-0.0071382737
11	0xbe1ab9b6	-0.15109906
12	0xbde2aee9	-0.11068518
13	0xbdd81c37	-0.105522566
14	0x3d4c1cec	0.04983227
15	0xbe683ac4	-0.22678667
16	0xbe32a1b5	-0.17444499
17	0xbe8a5d77	-0.27024433
18	0xbcae57f9	-0.021282183
19	0x3e141866	0.14462432
20	0xbe0428ca	-0.12906185
21	0xbebaf1bf	-0.36512563
22	0xbdce5b94	-0.10076061
23	0x3d3f7cd3	0.0467499
24	0x3e5dce86	0.21660814
25	0xbd696a5c	-0.056986198
26	0xbe0e0c97	-0.1387199
27	0xbdc42755	-0.095778145
28	0xbd993ebf	-0.07482671
29	0xbdc5a701	-0.09650994
30	0xbe2ee195	-0.1707824
31	0x3c849890	0.016186029
32	0xbe20249e	-0.15638968
33	0xbdeee5ce	-0.116649255
34	0xbe911da9	-0.2834294
35	0x3d97af56	0.074064896
36	0x3dd56914	0.10420433
37	0xbdc29c24	-0.09502438
38	0xbe8f3887	-0.27972814
39	0xbf09421c	-0.536165
40	0x3d32d419	0.043659303
41	0x3d66e3f5	0.05636974
42	0xbcb32548	-0.021868363
43	0xbe237e02	-0.15966037
44	0xbef1d3a9	-0.47231796
45	0x3e8aae53	0.27086124
46	0x3e1dec64	0.15422207
47	0xbc926e30	-0.017874807
48	0xbe6ab9a6	-0.22922382
49	0xbeec2452	-0.4612146
50	0xbc37af0e	-0.01121117
51	0xbdbd45ba	-0.09241815
52	0xbda60fcd	-0.081084825
53	0xbceccce0	-0.028906286
54	0xbdad807f	-0.08471774
55	0xbd31365b	-0.043264728
56	0xbdf63838	-0.120224416
57	0xbe392468	-0.18080294
58	0xbdf8c282	-0.121464744
59	0xbd722095	-0.059113104
60	0xbc288a81	-0.010286928
61	0xbd7a1038	-0.061050624
62	0xbe9062cd	-0.2820038
63	0xbe2dbd73	-0.169668
64	0xbe10a9a6	-0.14127216
65	0x3d1d3fb1	0.03839082
66	0xbd3a9850	-0.045555413
67	0xbe7633a5	-0.24043138
68	0xbe51bd52	-0.20482376
69	0xbd6f950e	-0.05849176
70	0x3da5c58e	0.08094321
71	0xbe1c95a0	-0.15291452
72	0xbe593d1d	-0.21214719
73	0xbda403c1	-0.080085285
74	0xbdc05333	-0.09390869
75	0x3e017b14	0.12644607
76	0x3d1cfe2c	0.038328335
77	0xbddb36a2	-0.1070378
78	0xbe8d32e4	-0.2757789
79	0xbe8523c9	-0.26003864
80	0x3e548fe8	0.20758021
81	0x3dad0d7a	0.08449836
82	0x3d5f97ce	0.05458813
83	0xbe61fa98	-0.2206825
84	0xbe8ed07f	-0.27893445
85	0x3d706fcd	0.05870037
86	0x3da19dce	0.07891427
87	0x3dc1ca71	0.09462441
88	0xbdaa8da9	-0.08327801
89	0xbe8942fd	-0.2680892
90	0x3d08dcd0	0.03341371
91	0x3c9996b2	0.018748615
92	0x3d2c6d91	0.04209668
93	0xbdb08acd	-0.08620224
94	0xbe9090d5	-0.28235498
95	0xbc389c32	-0.011267709
96	0xbc7d825d	-0.015472976
97	0xbdb1e241	-0.08685733
98	0xbe8265b3	-0.25468215
99	0xbe9c40e9	-0.30518273
100	0x3d7fb1e1	0.062425498
101	0xbdb19886	-0.0867167
102	0xbe3c181a	-0.18368569
103	0xbd8fd05b	-0.070221625
104	0xbe9e7f14	-0.30956328
105	0x3d21cc94	0.03950174
106	0xbd93de4a	-0.07220133
107	0xbe55ec19	-0.20890845
108	0xbe93b4df	-0.2884893
109	0xbe644339	-0.22291268
110	0x3962fde0	0.00021647615
111	0xba4b0f94	-0.0007746157
112	0xbd3e6d71	-0.04649109
113	0xbe13656b	-0.14394157
114	0xbe27146a	-0.16316381
115	0x3d24ce45	0.040235776
116	0x3d51972f	0.05116957
117	0x3d6df552	0.058095284
118	0xbd47a2f1	-0.048739377
119	0xbe664424	-0.22486931
120	0x3e3a89d8	0.18216646
121	0x3e20805b	0.15673964
122	0x3d1b5e88	0.03793195
123	0xbe829e3e	-0.25511354
124	0xbef17af8	-0.4716413
125	0xbcb255ef	-0.021769492
126	0xbe970df8	-0.29502845
127	0xbe80fadb	-0.25191388
128	0xbe2fe3cd	-0.17176743
129	0xbd96f0c1	-0.07370139
130	0xbd3dc5ab	-0.04633109
131	0xbe5f0875	-0.2178057
132	0xbe920cff	-0.2852554
133	0xbe5b4b79	-0.2141551
134	0xbdc4dfe1	-0.09613014
135	0x3dd34b23	0.103170656
136	0xbdbb7a4f	-0.09154188
137	0xbdda9302	-0.10672571
138	0xbe3c0db2	-0.183646
139	0xbda37e11	-0.0798303
140	0x3e9b78bc	0.3036555
141	0xbe2a6110	-0.16638589
142	0xbe884c5d	-0.2662076
143	0xbe9b27ee	-0.303039
144	0xbdcde43a	-0.100532964
145	0x3d48ade4	0.04899396
146	0xbe8ed093	-0.27893505
147	0xbeb77d1d	-0.3583764
148	0xbeaced5e	-0.33774847
149	0xbd6dbc91	-0.05804116
150	0x3d91c9af	0.07118546
151	0xbe05fa9f	-0.13083886
152	0x3a21cf14	0.00061725196
153	0x3dc77788	0.09739596
154	0x3dd36170	0.10321319
155	0xbbecbf07	-0.0072249207
156	0xbe5cf198	-0.21576536
157	0xbdd7b0fb	-0.10531803
158	0x3aefc48f	0.0018292832
159	0x3d90c1a4	0.07068184
160	0x3a47a597	0.00076159224
161	0xbda97b5f	-0.08275484
162	0xbe023249	-0.12714495
163	0xbe180052	-0.14843872
164	0x3dc5b1ad	0.096530296
165	0xbda5eeab	-0.08102163
166	0xbe17785a	-0.14792004
167	0xbe2e16ee	-0.17000934
168	0xbd7650bd	-0.06013559
169	0x3d837338	0.064184606
170	0xbdec5d1f	-0.11541199
171	0xbe5207f4	-0.20510846
172	0xbdf3fb77	-0.119131975
173	0x3d4ea5bb	0.05045102
174	0x3ddbb4e1	0.10727859
175	0xbce5efba	-0.028068412
176	0xbe075000	-0.13214111
177	0xbde91da8	-0.113826096
178	0xbe22a9d5	-0.15885098
179	0xbeac1d0f	-0.3361592
180	0x3d689c29	0.05678955
181	0xbdf79a05	-0.12089924
182	0xbe92a95b	-0.28644833
183	0xbee8da5e	-0.454791
184	0xbe9d1c5a	-0.30685693
185	0x3e2d31af	0.16913484
186	0xbd898abe	-0.06715916
187	0xbe8e5615	-0.2780005
188	0xbeccf2c3	-0.40028962
189	0xbe2631d5	-0.16229947
190	0x3d49b989	0.049249206
191	0xbd873011	-0.06600965
192	0xbe720f39	-0.2363862
193	0xbe95e767	-0.29278108
194	0xbd92d013	-0.07168593
195	0x3cc05b90	0.02348116
196	0xbdaf4299	-0.08557624
197	0xbe1b74df	-0.15181302
198	0xbebd8207	-0.37013265
199	0xbe4607f1	-0.19338967
200	0xbdc860d5	-0.09784094
201	0x3d0ae7c9	0.033912454
202	0xbc1a338f	-0.009411707
203	0xbd1f0f13	-0.038832735
204	0xbd362d85	-0.044477005
205	0xbde4c8f8	-0.11171144
206	0xbd90e895	-0.070756115
207	0x3cf49624	0.029856749
208	0x3cf2f68f	0.029658584
209	0xbd604ef9	-0.054762814
210	0xbe04095c	-0.12894195
211	0xbcda2d62	-0.026632968
212	0x3d102948	0.03519562
213	0x3d759a45	0.059961576
214	0xbac1a346	-0.0014773391
215	0xbd699efa	-0.057036377
216	0xbd5e7a37	-0.054315772
217	0x3d91752b	0.07102426
218	0x3db68aaa	0.08913167
219	0xbd13ca55	-0.03608163
220	0xbd8c0672	-0.06837167
221	0xbd407157	-0.04698309
222	0x3e0a9ac2	0.13535598
223	0xbca3e25f	-0.020005403
224	0xbd37eddd	-0.04490458
225	0xbe1593f2	-0.14607218
226	0xbe17d5ee	-0.14827701
227	0xbe1377b5	-0.14401133
228	0xbe5236d2	-0.20528725
229	0x3c722178	0.014778487
230	0xbe7342f1	-0.23756005
231	0xbe272acb	-0.16324918
232	0xbd9d7115	-0.07687584
233	0xbd978e95	-0.07400242
234	0x3d38b111	0.04509074
235	0xbe6914fa	-0.22761908
236	0x3c7d3085	0.0154534625
237	0x3e68ca44	0.22733408
238	0xbce4366e	-0.027857985
239	0x3d1e10b6	0.038590156
240	0xbd675f22	-0.05648721
241	0x3dc9f2bb	0.0986075
242	0x3d9d0f93	0.07668986
243	0x3d2d54b9	0.042317126
244	0x3db53e3c	0.08849761
245	0x3e0f42c0	0.13990307
246	0xbacd5c26	-0.0015667721
247	0xbe1e0007	-0.15429698
248	0xbc56bb56	-0.013106188
249	0x3d944976	0.07240574
250	0xbb540c07	-0.0032355802
251	0xbd61c2a7	-0.055117276
252	0xbe1a8307	-0.15089045
253	0xbe810a91	-0.25203374
254	0xbe675ec7	-0.22594748
255	0x3d4c8962	0.049935706

layer.2.bias f4 [32]
0	0xbd598338	-0.053103656
1	0x3d873e9e	0.0660374
2	0x3d4d2287	0.050081756
3	0xbb2e985e	-0.002664111
4	0x3cbe5869	0.023235517
5	0x3cf682db	0.030091694
6	0x3d43d971	0.04781479
7	0xbc10349e	-0.008801607
8	0x3cc5af46	0.024131428
9	0x3bbec332	0.005821609
10	0x3dbb1ec4	0.091367275
11	0x3d25d98f	0.040490683
12	0x3c44f38c	0.012020957
13	0xbd143dcf	-0.036191758
14	0xbcbf8623	-0.023379391
15	0x3c4400b4	0.011963058
16	0x3d956870	0.072953105
17	0xbd3a2294	-0.045443133
18	0x3b9c2080	0.0047646165
19	0x3cca860f	0.024722127
20	0xbd2100ca	-0.039307393
21	0x3c9cf84d	0.019161368
22	0x3c9792fe	0.018502709
23	0x3d099196	0.033586107
24	0x3ba08e04	0.004899742
25	0xbcaf4297	-0.021394057
26	0xbb44749f	-0.0029976738
27	0x3dc85dcd	0.09783516
28	0x3d1f5d7e	0.03890752
29	0x39090692	0.00013067786
30	0xbd5c3a62	-0.053766616
31	0x3cb2f3d7	0.021844788

layer.6.weight f4 [64, 32, 5, 5]
0	0xbb08e46d	-0.0020888106
1	0xbe37763f	-0.17916201
2	0xbd25fe2d	-0.040525604
3	0xbe1b6e0c	-0.15178698
4	0x3dc0ec85	0.094201125
5	0x3d472b91	0.048625533
6	0xbd474eba	-0.048659064
7	0x3adb0358	0.001670937
8	0x3c06be3f	0.008224069
9	0x3e446220	0.19178057
10	0x3da652a0	0.08121228
11	0x3c477b52	0.012175398
12	0xbcbf141e	-0.023325022
13	0x3c9bf7cb	0.019039055
14	0xbde985de	-0.11402486
15	0x3d3de333	0.046359252
16	0x3de4cae1	0.111715086
17	0xbdcd29c5	-0.100177325
18	0xbd91fb50	-0.07128012
19	0x3e39d1ef	0.1814649
20	0xbc89ff23	-0.016845291
21	0xbd4ca565	-0.04996242
22	0x3d47cf64	0.048781767
23	0xbcd959dc	-0.026532106
24	0x3c567027	0.013088263
25	0xbdfb81d9	-0.12280626
26	0xbdc95e16	-0.098323986
27	0xbd576370	-0.052585065
28	0xbd72cee3	-0.059279334
29	0xbda00922	-0.07814242
30	0xbd35b5e4	-0.044362918
31	0xbe18e1c4	-0.14929873
32	0xbe8ac65d	-0.27104464
33	0xbe362774	-0.17788488
34	0xbd90eeb6	-0.070767805
35	0xbe1db297	-0.15400158
36	0xbea39fdd	-0.31957904
37	0xbe814abc	-0.2525233
38	0xbec138be	-0.37738603
39	0xbd273460	-0.040821433
40	0xbe6d94db	-0.23201315
41	0xbed3d098	-0.41370082
42	0xbe98dfd4	-0.29858267
43	0xbe356696	-0.17714915
44	0xbd9f300a	-0.077728346
45	0xbc8090b4	-0.015694
46	0xbe23c5b6	-0.1599339
47	0x3dacab9e	0.08431171
48	0x3e50c720	0.2038846
49	0x3d03e751	0.032203022
50	0x3dfb4e2d	0.1227077
51	0x3e435243	0.19074349
52	0x3dbcc169	0.092165776
53	0x3c0ea8a7	0.008707202
54	0x3e17814d	0.14795418
55	0x3e240bf9	0.16020192
56	0xbcbe2c77	-0.023214562
57	0x3c71e684	0.014764432
58	0x3def6e08	0.11690909
59	0xbe25eefc	-0.16204447
60	0x3e0309de	0.12796733
61	0xbdbcb317	-0.09213846
62	0xbe47b6f7	-0.1950339
63	0xbb7a2200	-0.0038167238
64	0xbe84a3ec	-0.25906312
65	0x3c9a69ad	0.018849218
66	0x3c943774	0.018092848
67	0xbd005fe6	-0.031341456
68	0x3dd18902	0.1023121
69	0x3b7cd1b9	0.0038577153
70	0x3b2e41e0	0.0026589558
71	0x3ae0b420	0.0017143525
72	0xbd4ae2ab	-0.049532574
73	0x3d34d962	0.044152625
74	0xbc72b7cf	-0.014814331
75	0xbd86465d	-0.065563895
76	0xbe166a67	-0.14689027
77	0x3d8b2250	0.06793654
78	0x3e0b7a69	0.13620915
79	0xbc053dd8	-0.0081324205
80	0x3cba2402	0.022722248
81	0xbd0119d9	-0.03151879
82	0x3d820089	0.06347758
83	0xbd2dbe4b	-0.042417806
84	0x3c84b994	0.016201772
85	0x3d3f2a6b	0.046671312
86	0x3d753867	0.059868243
87	0xbcf23428	-0.029565886
88	0xbe39cbb8	-0.18144119
89	0x3d2c0c3d	0.04200386
90	0x3d4563dd	0.04819094
91	0x3e10573c	0.14095777
92	0x3c301f30	0.010749623
93	0xbe9294f7	-0.28629276
94	0x3d212c55	0.03934892
95	0x3ced140a	0.02894022
96	0xbe3402cb	-0.1757919
97	0xbdc1512a	-0.09439309
98	0xbd17b704	-0.03703977
99	0xbd0886f1	-0.033331815
100	0x3e909767	0.2824051
101	0x3e8b04e8	0.2715218
102	0x3ddf107b	0.10891815
103	0xbddcb8cf	-0.10777437
104	0xbd05d532	-0.032674022
105	0xbc396fd0	-0.011318162
106	0x3e307e74	0.17235738
107	0x3e1fc40a	0.15602127
108	0xbd953f1d	-0.072874285
109	0xbc96f547	-0.018427504
110	0x3d73fc38	0.059566706
111	0xbd3996e8	-0.04530993
112	0xbd0d022d	-0.034425903
113	0xbdd5e251	-0.10443557
114	0x3df5d63c	0.120037526
115	0xbd5764bb	-0.0525863
116	0x3dbad132	0.09121932
117	0x3e013137	0.1261643
118	0xbda5e037	-0.08099406
119	0xbda7a1c5	-0.08185152
120	0xbd905ec2	-0.070493236
121	0x3c29f014	0.0103721805
122	0xbc2c31b4	-0.010509897
123	0x3db96a5d	0.0905349
124	0x3e45fd23	0.19334845
125	0xbd852677	-0.06501477
126	0xbe2187bd	-0.15774436
127	0xbcf854c6	-0.03031386
128	0xbdbf3dc3	-0.09337952
129	0xbe2ac254	-0.16675693
130	0xbe211cbc	-0.15733618
131	0xbe8c3cd4	-0.27390158
132	0xbe0b6c58	-0.13615549
133	0xbe3a0e70	-0.1816957
134	0xbe6382e8	-0.22217906
135	0xbe7a989c	-0.24472278
136	0xbebb0828	-0.3652966
137	0xbe9b719b	-0.30360112
138	0xbd5cbb74	-0.053889707
139	0xbb5499d5	-0.0032440324
140	0x3d08c7e5	0.03339376
141	0xbe3642b5	-0.17798884
142	0xbe3cfc7e	-0.18455693
143	0xbce77217	-0.028252644
144	0x3dcecabb	0.100972615
145	0xbc27715a	-0.010219896
146	0x3d2e757c	0.04259251
147	0xbd9a615b	-0.075381
148	0xbe648b7c	-0.22318834
149	0x3cdac63c	0.026705854
150	0x3df25288	0.11832148
151	0x3dfb87de	0.12281774
152	0x3dedf118	0.116182506
153	0x3cf43e9f	0.029815016
154	0xbd6ca946	-0.05777862
155	0x3de500a1	0.111817606
156	0x3e2fac70	0.17155623
157	0x3d3c6248	0.045992166
158	0xbcd5fc63	-0.026121324
159	0x3dbe7f24	0.09301594
160	0xbd09b041	-0.033615354
161	0x3c5ea8b8	0.01359003
162	0x3d30ba8e	0.043146662
163	0xbcca9ab0	-0.024731964
164	0x3d0a25d0	0.033727467
165	0x3e147937	0.14499365
166	0x3dc53b47	0.09630447
167	0x3e56d8dd	0.20981164
168	0xbe9c62d9	-0.30544165
169	0x3d48c12f	0.04901236
170	0x3db32f26	0.08749227
171	0x3dbe95d5	0.09305922
172	0x3de188b6	0.11012404
173	0xbc904595	-0.017611304
174	0xbd71b332	-0.059008785
175	0x3cfbfd0a	0.030760307
176	0xbca56685	-0.020190487
177	0x3d19477c	0.03742169
178	0xbd73e478	-0.059544057
179	0xbe23a4af	-0.1598079
180	0xbe289543	-0.16463189
181	0x3d840662	0.0644653
182	0x3a463b3a	0.0007561926
183	0xbdf4b45a	-0.11948462
184	0xbe4ac3c1	-0.19801237
185	0x3da25872	0.07927026
186	0x3d9a86f3	0.07545271
187	0x3d771b86	0.060328983
188	0xbe4378d7	-0.19089065
189	0xbea548fe	-0.3228225
190	0x3e35dced	0.17760058
191	0x3df17137	0.11789172
192	0xbe100759	-0.14065303
193	0xbe10d8df	-0.1414523
194	0x3d2fc8e3	0.04291619
195	0xbdecbb5d	-0.11559174
196	0xbe907d7d	-0.2822074
197	0xbe150223	-0.14551596
198	0xbe0721b8	-0.13196456
199	0x3c624398	0.013810061
200	0x3e7e09be	0.24808404
201	0x3dc6f672	0.097149745
202	0x3c87ad0a	0.016562004
203	0x3bdb3dc8	0.0066907145
204	0xbdcd0653	-0.10010972
205	0x3db366c6	0.08759837
206	0x3cffd70f	0.031230478
207	0x3da0d839	0.07853741
208	0xbe2378d8	-0.15964067
209	0xbdc8d6a4	-0.098065645
210	0x3c22b824	0.009931598
211	0xbdb157e0	-0.08659339
212	0xbe072fde	-0.13201854
213	0xbcd5d115	-0.026100675
214	0x3d9368ec	0.07197747
215	0x3d5b324b	0.05351476
216	0x3e049ac7	0.12949668
217	0xbc53ea98	-0.0129343495
218	0x3c8ed46a	0.017435271
219	0xbd374422	-0.04474271
220	0xbe15f8e1	-0.14645721
221	0xbda4b5e1	-0.08042503
222	0xbe4e3044	-0.201356
223	0xbe8381e2	-0.2568503
224	0xbdc3fd7f	-0.09569835
225	0xbdcc23c0	-0.09967756
226	0xbd1d5fe7	-0.038421538
227	0x3c9172a0	0.017754853
228	0xbd75b9bc	-0.059991583
229	0xbbdac987	-0.006676856
230	0xbe739fdf	-0.23791455
231	0xbe4a31af	-0.19745515
232	0x3d32394d	0.043511678
233	0xbdf8089c	-0.12111017
234	0xbd561e2b	-0.052274864
235	0x3c67a3bf	0.014138161
236	0x3d2fef5b	0.042952877
237	0x3cdd3643	0.027003413
238	0xbe3def29	-0.18548264
239	0xbd9da7ee	-0.07698046
240	0x3b105a0c	0.0022026328
241	0x3b5af5be	0.0033410634
242	0xbd4211f7	-0.047380414
243	0xbe2031b8	-0.15643966
244	0x3e147c12	0.14500454
245	0xbd552032	-0.052032657
246	0xbde759c4	-0.11296418
247	0xbde72335	-0.11286012
248	0x3da592c1	0.08084632
249	0xbbf0ab45	-0.0073446357
250	0xbe2f67f7	-0.17129503
251	0xbd6f47ba	-0.058418013
252	0xbe83a4cd	-0.2571167
253	0xbe824f6b	-0.25451216
254	0xbe2b482d	-0.16726752
255	0x3d4ab484	0.04948856

layer.6.bias f4 [64]
0	0x3e23c215	0.15992005
1	0xbda30fd3	-0.079620026
2	0xbce16d33	-0.02751789
3	0xbe20ae72	-0.15691546
4	0x3cfb7485	0.03069521
5	0xbdce6e1d	-0.10079596
6	0xbda90142	-0.08252193
7	0xbd30076a	-0.04297582
8	0xbd376499	-0.04477367
9	0x3bbc9004	0.0057544727
10	0xbc91de3c	-0.017806165
11	0x3e0f8252	0.14014557
12	0x3da717d4	0.08158842
13	0xbe17f0c6	-0.14837942
14	0xbd2efffb	-0.04272459
15	0xbcb4df32	-0.022079084
16	0x3c5575da	0.013028586
17	0xbdb18a86	-0.086689994
18	0x3cfbc951	0.030735644
19	0xbd7c6e99	-0.06162891
20	0xbd93f011	-0.072235234
21	0xbd442e0e	-0.047895484
22	0x3bb606ae	0.0055549955
23	0xbb898ddb	-0.0041978187
24	0x3da54155	0.08069102
25	0xbe01932d	-0.126538
26	0xbd580e61	-0.052748088
27	0x3bab9a9d	0.005236937
28	0xbda4b89c	-0.08043024
29	0x3c9e9a69	0.019360738
30	0xbdd2a5b6	-0.10285513
31	0xbcb7f317	-0.022454781
32	0x3e3ab622	0.1823354
33	0x3e4a0b6b	0.19730918
34	0xbda7c8eb	-0.08192619
35	0xbb832fd0	-0.0040035024
36	0x3e226117	0.1585735
37	0xbd7555e2	-0.059896357
38	0xbddbdc00	-0.10735321
39	0xbde9e0d8	-0.11419839
40	0x3da43acb	0.08019026
41	0xbcd51edc	-0.026015691
42	0x3ddca3d4	0.10773435
43	0xbd380e9b	-0.044935804
44	0xbd96c56e	-0.073618755
45	0xbd317229	-0.043321762
46	0xbdb32129	-0.08746559
47	0xbb8b5679	-0.0042522517
48	0x3df82c3b	0.12117811
49	0xbd603ca2	-0.054745324
50	0xbcab4ff9	-0.020912157
51	0xbdbe8c0c	-0.093040556
52	0xbdcd56d4	-0.10026327
53	0xbceef492	-0.029169355
54	0xbdf8ebdd	-0.12154362
55	0xbd4a40c3	-0.049378168
56	0xbd8bc862	-0.06825329
57	0xbd691ad9	-0.05691037
58	0xbe107b20	-0.14109468
59	0x3e23ab2a	0.15983263
60	0xbd081458	-0.033222526
61	0x3e0f1e9a	0.13976517
62	0x3da3fb2b	0.08006891
63	0x3da239bb	0.079211675

fc_layer.weight f4 [10, 576]
0	0xbd98386f	-0.07432639
1	0xbd68210a	-0.056672134
2	0xbc85a5e8	-0.016314462
3	0x3d994a3d	0.07484863
4	0x3d698735	0.05701371
5	0xbbaf0229	-0.0053408337
6	0x3e2b4eba	0.1672925
7	0x3d11ca6d	0.03559344
8	0x3d0b7393	0.034045767
9	0xbc2af851	-0.01043518
10	0xbcf5dad3	-0.03001157
11	0xbe13bfc9	-0.14428629
12	0x3dbe95ce	0.09305917
13	0xbd8a362f	-0.06748616
14	0xbe7e86ac	-0.2485606
15	0x3dc377ec	0.09544358
16	0xbc0632f7	-0.008190862
17	0xbee6483c	-0.44976985
18	0xbd91f5b1	-0.0712694
19	0xbe220ff1	-0.15826394
20	0xbe18de3d	-0.14928527
21	0x3e195f92	0.14977863
22	0x3d9d4359	0.07678861
23	0xbe8fd881	-0.28094867
24	0x3e43fcb7	0.19139372
25	0xbe0ec69c	-0.13942951
26	0xbdcf0423	-0.10108211
27	0xbd745038	-0.059646815
28	0xbdd25d8d	-0.1027175
29	0xbe9a9a3d	-0.301958
30	0xbdc0e774	-0.09419146
31	0xbe4942a6	-0.1965433
32	0xbe642f69	-0.2228371
33	0x3d6f08f8	0.058358163
34	0x3d2ddc4d	0.042446423
35	0x3e26ab4d	0.16276284
36	0xbe21f82e	-0.1581733
37	0x3cc06fae	0.023490753
38	0x3daf9d7b	0.08574959
39	0x3ceef7be	0.029170867
40	0x3db00f28	0.08596641
41	0x3cfc1ed8	0.030776426
42	0x3e2a5f8c	0.1663801
43	0xbde6c0ed	-0.112672664
44	0xbe850ac5	-0.2598478
45	0x3dbfafc3	0.09359696
46	0x3dd60e62	0.10451962
47	0xbcf7f0bb	-0.030266156
48	0xbd4cb15b	-0.049973827
49	0xbdfcf0f5	-0.123506464
50	0x3d62fd2b	0.05541722
51	0x3c301df1	0.010749326
52	0x3d4d98dd	0.05019461
53	0x3dd6cbfa	0.10488124
54	0x3d45abab	0.04825942
55	0x3d2a92ca	0.041643895
56	0x3e1bcb68	0.15214312
57	0x3db2bf7b	0.08727928
58	0xbba17850	-0.0049276724
59	0xbe8786e2	-0.26470095
60	0xbdfc91e6	-0.123325154
61	0xbbc32e80	-0.005956471
62	0x3dac2ee9	0.08407385
63	0x3ae9bdcf	0.0017833057
64	0xbd20e8bd	-0.039284457
65	0x3d162dca	0.03666476
66	0x3e08144d	0.13288994
67	0x3ca8a211	0.020585092
68	0xbc67b72c	-0.014142793
69	0xbe6687f3	-0.22512798
70	0x3de7a286	0.11310296
71	0x3d836323	0.06415393
72	0xbe8ed6f3	-0.27898368
73	0xbd3636f4	-0.044486
74	0x3ceaa04c	0.028640889
75	0xbf07c472	-0.53034127
76	0xbd2460fa	-0.040131547
77	0x3b3cad85	0.002878995
78	0xbe19bc18	-0.15013158
79	0x3cba5822	0.022747103
80	0x3e059e06	0.13048562
81	0xbca45107	-0.020058168
82	0xbe1ebbac	-0.15501279
83	0xbee5d38b	-0.44887957
84	0x3d4d63d3	0.050144028
85	0xbd5456ee	-0.051840715
86	0xbf004f6e	-0.501212
87	0x3e31f7f2	0.1737974
88	0x3dced168	0.10098535
89	0xbd81d9a7	-0.06340342
90	0xbe801418	-0.2501533
91	0x3e130426	0.14357051
92	0xbdb303d3	-0.08740964
93	0xbe2ffb3f	-0.17185687
94	0x3dc4ae2a	0.09603532
95	0xbe82890d	-0.25495186
96	0xbe2e7170	-0.1703546
97	0x3e10132d	0.14069815
98	0xbe514ad8	-0.20438707
99	0x3d9433ea	0.07236464
100	0xbe86acfa	-0.26303846
101	0xbcd0030e	-0.025392082
102	0x3cfc2a0d	0.03078177
103	0x3be75e35	0.007060791
104	0xbc063244	-0.008190695
105	0x3e6a4e31	0.2288139
106	0x3d41164d	0.04714041
107	0x3e396b1b	0.18107264
108	0x3de0cbb7	0.109763555
109	0x3ddfbfaa	0.10925229
110	0xbd1c5f5b	-0.038176876
111	0xbdee6509	-0.11640365
112	0xbe012f19	-0.12615623
113	0xbea60520	-0.32425785
114	0xbe270060	-0.16308737
115	0x3d1da2be	0.03848528
116	0xbe3f1dc7	-0.18663703
117	0xbe939a58	-0.28828692
118	0xbe8c60de	-0.27417654
119	0x3da03842	0.0782323
120	0xbecdf66a	-0.40227062
121	0xbdaab6a8	-0.0833562
122	0x3de0dc3e	0.10979508
123	0xbedaf614	-0.42765868
124	0xbe62700e	-0.22113058
125	0x3d01d8f2	0.031701036
126	0xbbc06996	-0.005871962
127	0x3ca97178	0.020683989
128	0x3d90b431	0.07065619
129	0xbdc671e9	-0.096896954
130	0xb910bd2c	-0.00013803382
131	0x3d79e636	0.061010562
132	0xbd82a0da	-0.06378336
133	0xbdd546ca	-0.104138926
134	0xbeba74bc	-0.36417186
135	0xbe95fd36	-0.29294747
136	0xbbdcfdbf	-0.006744116
137	0x3c85ba7e	0.016324278
138	0xbe49e131	-0.1971481
139	0xbd30d0b7	-0.043167796
140	0x3c5ab1c1	0.013348044
141	0xbe8378ff	-0.2567825
142	0xbe0cd2ff	-0.13752364
143	0xbd0e72d2	-0.03477747
144	0xbe1f78dc	-0.15573448
145	0xbd0ab756	-0.03386625
146	0x3d2e1b6b	0.042506617
147	0x3c8c7315	0.01714472
148	0xbca72648	-0.020403996
149	0xbd8f9997	-0.07011717
150	0x3d7aeea2	0.061262734
151	0x3d9216ab	0.0713323
152	0xbe491ace	-0.19639131
153	0xbd598ddd	-0.053113807
154	0x3daa1397	0.08304518
155	0xbcd18606	-0.025576603
156	0xbe7a93b0	-0.24470401
157	0xbe8af5c2	-0.27140623
158	0xbe6ad13d	-0.2293138
159	0xbcde3288	-0.027123705
160	0xbd3563be	-0.044284575
161	0xba34b80d	-0.0006893881
162	0xbd9d1b0b	-0.07671174
163	0x3e01b765	0.12667616
164	0x3cc1c7db	0.023654869
165	0xbe36b8b3	-0.17843895
166	0x3e0c5568	0.13704455
167	0xbe5e07c7	-0.21682654
168	0x3cbcd7e5	0.023052165
169	0x3e21821a	0.15772286
170	0xbe47608b	-0.19470422
171	0xbe10f2dc	-0.14155143
172	0xbd9be389	-0.07611758
173	0xbc38054c	-0.011231732
174	0x3cd46a30	0.02592954
175	0x3c891106	0.01673175
176	0xbe82f1fa	-0.25575238
177	0xbbeb406c	-0.0071793105
178	0x3c01f7b9	0.007932597
179	0xbec1bd15	-0.3783957
180	0x3d1b7767	0.037955668
181	0x3daf3f88	0.085570395
182	0xbd74884a	-0.059700288
183	0xbc1cbce0	-0.009566516
184	0x3d2ec7ed	0.042671133
185	0xbea418d6	-0.32050198
186	0x3ce1548b	0.027506134
187	0x3e0380e3	0.12842135
188	0xbe1b2ed7	-0.15154587
189	0x3daf2fc7	0.08554035
190	0xbdcd2056	-0.10015933
191	0xbcee084d	-0.029056692
192	0xbd2bb09f	-0.041916486
193	0xbd5b71f0	-0.053575456
194	0xbe99e8df	-0.3006048
195	0x3d8f3c94	0.06993976
196	0x3dd5d0f4	0.10440245
197	0xbe6965fe	-0.22792813
198	0xbda002b5	-0.07813016
199	0xbc17f80f	-0.00927545
200	0xbdf083a6	-0.1174386
201	0xbe3b7e45	-0.18309887
202	0x3e05ac8c	0.13054103
203	0xbe65bfc5	-0.22436436
204	0x3dc7706d	0.097382404
205	0x3d6576c9	0.056021485
206	0xbe797ed3	-0.24364786
207	0x3d4514d0	0.04811555
208	0xbcf7f80c	-0.030269645
209	0xbd63e3b5	-0.05563708
210	0xbe3919e5	-0.18076284
211	0xbe4b59d3	-0.19858484
212	0xbd4d41ec	-0.050111696
213	0x3d900e8a	0.07034023
214	0x3dd21769	0.102583714
215	0xbdb2a4ca	-0.08722837
216	0x3ce9acd7	0.0285248
217	0xbca2016a	-0.019776065
218	0x3df04269	0.11731417
219	0x3cacdc1c	0.02110105
220	0xbe2741db	-0.16333716
221	0x3de92b15	0.1138517
222	0xbd895467	-0.067055516
223	0x3df24bd0	0.11830866
224	0x3e3e1388	0.18562138
225	0x3d2da6e7	0.0423955
226	0xbd7acfda	-0.06123338
227	0x3cb2f64d	0.021845961
228	0xbe834139	-0.25635698
229	0xbd02073e	-0.031745188
230	0x3b0d0dc2	0.0021523093
231	0xbe8a5374	-0.27016795
232	0xbeb04ce0	-0.3443365
233	0xbe704a69	-0.23465885
234	0xbe03758a	-0.12837806
235	0x3dbced20	0.092249155
236	0x3e178769	0.14797749
237	0xbdf95fef	-0.12176501
238	0xbce6e723	-0.028186386
239	0x3dd3431b	0.10315534
240	0x3c50e729	0.012750425
241	0xbaa123e1	-0.0012294018
242	0x3d92f404	0.071754485
243	0x3dee5e43	0.11639073
244	0x3d5c74aa	0.053822197
245	0x3d12da98	0.035853
246	0x3e3461b9	0.17615403
247	0x3d330c25	0.043712754
248	0xbea4eca4	-0.32211792
249	0x3e5d4450	0.2160809
250	0xbdb23a07	-0.08702474
251	0xbe55bcd6	-0.20872816
252	0xbe4961c4	-0.19666201
253	0xbe4adc71	-0.19810654
254	0xbed9dabc	-0.42549694
255	0x3d7e35f5	0.062063176

fc_layer.bias f4 [10]
0	0x3dacce55	0.08437792
1	0x3e7117a7	0.23544179
2	0xbe833df4	-0.25633204
3	0x3e0d6381	0.13807489
4	0xbd4550a6	-0.048172615
5	0xbd421989	-0.047387633
6	0xbe3760ff	-0.17908095
7	0x3c65f097	0.014034412
8	0x3e2110a8	0.1572901
9	0xbddb0746	-0.10694747
